model2/keypoint_classifier/wristbend_classifier.tflite (tflite, 6456 bytes, 6 tensors)

sequential/dense/BiasAdd/ReadVariableOp f4 [20]
000000 a1 0c 11 3d 67 87 a6 bd c3 80 4f be 10 ec 4f bd
       0.035412434 -0.08131295 -0.20263962 -0.050762236
000010 f7 d6 8a be 3b ab 11 be 51 48 91 be 5b 05 4b be
       -0.2711713 -0.14225475 -0.28375486 -0.19826262
000020 5f 85 4a be 3a 75 83 be 4a 59 14 be a9 a0 2d be
       -0.1977744 -0.25675374 -0.14487186 -0.16955818
000030 c6 78 17 be 52 00 bb bd e8 b3 7c be b5 9f 3a be
       -0.14792165 -0.091309205 -0.24678004 -0.18224986
000040 bf b8 11 bd 5b 0b 4f be 92 ee cc bd cd 74 eb bd
       -0.03557658 -0.20219176 -0.10006441 -0.11496887

sequential/dense_2/BiasAdd/ReadVariableOp f4 [2]
000000 dd a3 ab 3d d9 a3 ab bd
       0.08380864 -0.08380861

sequential/dense_1/BiasAdd/ReadVariableOp f4 [10]
000000 a4 f2 7d 3d 65 2a b6 ba 37 e0 84 3d 65 80 ce 3d
       0.06199898 -0.0013898133 0.06488078 0.10083083
000010 76 f0 c2 3b c9 db cb ba d5 1a 92 3c 49 1f 44 3d
       0.0059490753 -0.0015553172 0.01783506 0.0478814
000020 21 02 8e 3d dd 5f 01 be
       0.06934 -0.12634225

sequential/dense/MatMul f4 [20, 42]
000000 d2 b4 68 be c2 33 9e 3e d0 7b 55 3d 8d 4f b1 3e
       -0.22725227 0.30898863 0.05212003 0.34631005
000010 9b ec 7d 3e 2f 3e d5 3c 4b 4a 95 3e d2 ca b6 bc
       0.24797289 0.026030628 0.29158244 -0.02231351
000020 05 42 45 3e dd 2a ce bc 08 70 26 bd ed 8c 07 3d
       0.19263466 -0.025166923 -0.040634185 0.03309338
000030 d4 af 1e 3d 48 bb 2d bc ee 89 21 be b0 0c b2 3d
       0.0387419 -0.010603733 -0.15775272 0.08693826
000040 d4 c4 ef bd 0c 87 11 bd 46 31 63 3d 11 f9 01 bd
       -0.11707464 -0.03552918 0.055466913 -0.03173167
000050 c6 17 98 bd 00 37 1a 3e b8 30 13 be 97 bd 3a bb
       -0.074264094 0.15060043 -0.14374053 -0.0028494352
000060 62 60 5c be 5b ba c9 be b5 0f 88 be d7 20 a2 be
       -0.21521142 -0.3939999 -0.26574484 -0.3166568
000070 ca 74 13 be 48 4d df be cc 06 14 3c 95 e9 6f be
       -0.1440002 -0.43613648 0.009034824 -0.23428948
000080 b0 a9 34 be 52 bf 90 bb e9 b8 b3 be ac 9c b0 bc
       -0.17642856 -0.0044173384 -0.35102013 -0.021559082
000090 6e 0f 97 3d a2 ca 9d be 50 b1 26 3e bc 46 01 bf
       0.0737599 -0.3081866 0.16278577 -0.5049856
0000a0 42 3f 3b 3e 23 dc 93 3b bc 36 7c bd 5a 14 6b be
       0.1828585 0.0045123263 -0.061575636 -0.22956982
0000b0 7d bf e1 be b1 68 99 bd c2 7a d2 be 75 c4 c8 be
       -0.44091406 -0.074906714 -0.41109282 -0.39212385
0000c0 c2 73 1e bd f4 4a 9b bd 25 71 71 3d 51 cb 2b bd
       -0.038684614 -0.075826555 0.058945794 -0.041941945
0000d0 8b 3e 37 bd 05 ac 50 3e bd fc 33 be 50 0b 8a 3e
       -0.04473738 0.2037812 -0.17576881 0.26961756
0000e0 63 33 20 3e 7e 72 85 3e 54 61 03 be 8c 2a d7 3b
       0.15644602 0.26063913 -0.12830096 0.0065663513
0000f0 68 81 d0 3c b5 82 64 3d d1 0c ce bc f1 59 9c 3e
       0.02545233 0.055788714 -0.025152596 0.3053737
000100 25 3f 01 be f5 e0 e5 3d 81 e0 3f be 9e 7f 8d 3e
       -0.12621744 0.11224548 -0.18737985 0.27636427
000110 97 56 2e 3e 40 3a cc 3e ca 5e 79 3e cb fd 0b 3f
       0.17025219 0.3988819 0.24352565 0.5468413
000120 c7 50 00 be de 46 9b 3e 04 db 52 3d 49 b5 04 3d
       -0.12530814 0.30327505 0.0514784 0.03239945
000130 9c 32 09 be 01 98 a3 3e 6d 19 f1 bd 75 41 ea 3e
       -0.13398212 0.31951907 -0.11772428 0.45753065
000140 6a f9 04 3e bc 4a f1 3d 2c ae fc bd 78 0a d7 3e
       0.12985769 0.117818326 -0.12337908 0.42000175
000150 4e 45 87 bd fc cd 69 3e 8e 8c 1a 3d 25 c7 c2 bd
       -0.06605016 0.22832483 0.0377317 -0.0951064
000160 32 2a 88 3e 97 78 74 3e 33 ff 43 3d fc 72 8b 3e
       0.26594692 0.23874126 0.0478508 0.27236164
000170 73 ab a1 3b 9f f0 c7 3e 4e 2a 05 3d 36 01 e4 bd
       0.0049337684 0.39050767 0.032511048 -0.111330435
000180 aa ee 5d bc 63 7b cf bd ea 0b e0 bd 1c e0 89 3d
       -0.0135456715 -0.10130956 -0.109397724 0.067321986
000190 38 26 c2 3e d0 48 d1 bd 24 4d 28 3e c9 63 7a 3c
       0.37919784 -0.10218966 0.16435677 0.01528258
0001a0 00 e2 94 3e 4d 47 da bd f8 02 89 3e f0 2e a8 3d
       0.29078674 -0.10658131 0.26760077 0.082120776
0001b0 87 ae 92 3e 78 f0 fd 3c 8d 2a 19 bd ec 2c 12 3e
       0.2864878 0.030998453 -0.037394095 0.14274949
0001c0 8a 7c 49 3e 16 1f 4f 3e 5e ef 99 3d bd 5b dd 3c
       0.19676414 0.20226702 0.07516359 0.027021283
0001d0 a2 0f b6 3e e8 43 1f be fc e7 ce 3e ee 40 46 3e
       0.35558802 -0.15553248 0.40411365 0.19360706
0001e0 9b 9f 8f 3e 23 fc 19 bd a1 af 63 3e 93 73 d1 b9
       0.28051457 -0.037593972 0.22234966 -0.00039949696
0001f0 c4 c3 60 3d 6c c8 94 be a4 e8 ab 3d ac 22 56 be
       0.054874197 -0.2905916 0.08393982 -0.20911664
000200 c7 b0 16 3e d4 14 69 3e 56 54 90 3e 7b 62 17 3e
       0.14715873 0.22761852 0.28189343 0.14783661
000210 35 f7 8a bd d6 65 1d 3c 70 b1 9f 3e fb 69 09 3e
       -0.06785432 0.009606799 0.31190062 0.13419335
000220 54 74 87 be 84 ed 38 be 88 95 34 3e 91 78 0d be
       -0.2645594 -0.18059355 0.17635167 -0.13815524
000230 be 41 40 3d d4 f3 87 3e fd 8a 18 3e 27 4e 94 be
       0.046937697 0.26553214 0.1489677 -0.28965876
000240 d0 fe 6b be a2 8f 1c 3e 04 a4 1a 3d 78 14 3e be
       -0.23046422 0.15289167 0.037754074 -0.18562496
000250 e1 bf 93 be 74 df 92 be 8e d8 43 be ce ed c7 bd
       -0.2885733 -0.28686106 -0.19125578 -0.097621545
000260 0a 31 a0 be f6 d4 90 be 05 da ba bd 1b 92 69 be
       -0.31287414 -0.28287476 -0.09123615 -0.22809641
000270 f3 28 94 be f7 92 a0 bd 9e 76 fc 3d b8 44 5a be
       -0.28937492 -0.07840531 0.12327312 -0.21315277
000280 70 d7 dd 3d cc a1 62 3e ac 88 70 bd cb 50 12 bd
       0.10832107 0.22132033 -0.05872409 -0.03572158
000290 1d 20 8d be f3 30 e0 bd 56 bb 98 bd e7 08 57 3d
       -0.27563563 -0.10946836 -0.074576065 0.052498724
0002a0 14 5c 6f 3e 90 1a 90 3c f5 c3 27 be e3 e0 b1 3e
       0.23374969 0.017590791 -0.16383345 0.34741887
0002b0 73 7c 0e 3e be ae 83 3e 53 63 b4 bd 5e c8 eb 3d
       0.13914661 0.25719255 -0.08808007 0.115128264
0002c0 ab 45 5a be b8 ef a4 3e 41 76 30 bd e4 ae 26 bd
       -0.21315639 0.3221414 -0.043081526 -0.040694132
0002d0 23 ea 85 bc 9b dd d4 3d 86 83 ba bd 83 1d e5 3d
       -0.016346997 0.103938304 -0.09107117 0.111872695
0002e0 26 df 97 3b dc d2 08 3d 0e d8 11 be 74 81 be 3d
       0.0046347557 0.033404216 -0.14242575 0.09302035
0002f0 82 41 1b be d8 14 4d 3d db 73 a0 3d eb b3 29 be
       -0.15161708 0.050068706 0.07834598 -0.1657254
000300 e2 10 40 bc c9 55 9c 3d 20 1d 62 be 38 19 a7 bd
       -0.011722775 0.0763355 -0.22081423 -0.08159107
000310 96 79 47 be ff 56 0a be e9 64 78 bd 6b 0c 5e be
       -0.19479975 -0.13509749 -0.06064311 -0.21684425
000320 27 38 ac be 14 be af 3d cc d0 65 be d5 0b dc 3c
       -0.3363659 0.085811764 -0.22442931 0.02686111
000330 b3 14 7f bc 21 9f 83 be d6 07 33 bd 8e 67 71 be
       -0.0155689 -0.25707343 -0.043708645 -0.23574659
000340 44 6e 0d be cd 90 23 be 75 bd 02 be 09 55 6b be
       -0.13811594 -0.15973206 -0.12767585 -0.22981657
000350 a1 70 ca be 43 23 2b be c3 d8 59 3d 39 2d 5d be
       -0.39539054 -0.1671267 0.053185236 -0.21599282
000360 48 01 45 be 87 b9 31 be 2a 45 9b bd e8 8b 8a be
       -0.1923877 -0.1735593 -0.075815514 -0.27059865
000370 8c 51 26 be d5 5d b5 3c 04 3a a1 3c d4 3f e1 3c
       -0.16242045 0.02213947 0.019680984 0.027496256
000380 51 d8 80 be 36 81 eb 3d 7c 22 bb 3d c3 66 85 bd
       -0.25165036 0.114992544 0.09137437 -0.06513741
000390 34 38 84 be 28 ec 57 bd ba 26 2f be 9b 01 23 bd
       -0.2582413 -0.05271545 -0.17104617 -0.039796453
0003a0 62 c6 a8 3c 0f 36 bf 3e 0c 2e 04 3e 26 fe 5d 3e
       0.020602409 0.3734593 0.1290819 0.21678981
0003b0 6a 13 24 be c3 36 9e 3e 06 38 a0 bd d1 51 a4 3e
       -0.16023031 0.30901155 -0.078231856 0.3209367
0003c0 00 19 a5 bd 94 69 93 3e 5f 05 cc 3d 30 18 cd 3d
       -0.08061409 0.28791487 0.09961962 0.10014379
0003d0 c1 87 be bc de b5 c4 3e 58 84 41 bd fb 44 ff 3e
       -0.023258092 0.38420004 -0.047245353 0.49857315
0003e0 30 ab 2e 3d bd 5f 46 3d c7 e4 9b 3e 73 e4 0a 3f
       0.042643726 0.048431147 0.3044798 0.54254836
0003f0 03 23 95 be 29 22 23 be 8a a9 80 3d 80 93 cb 3d
       -0.29128274 -0.15931 0.06282337 0.09940243

sequential/dense_1/MatMul f4 [10, 20]
000000 59 b0 dc 3e 87 b6 a7 be 54 9f e0 bd e7 af 7b 3e
       0.43103293 -0.32756445 -0.109678894 0.2457882
000010 27 c9 09 be 57 4e e5 be 99 c4 57 be 79 a9 22 be
       -0.1345564 -0.4478633 -0.2107109 -0.15884961
000020 a9 53 6a 3e 06 60 b6 3e e8 72 34 3e 47 0a 00 3e
       0.22883476 0.35620135 0.17621958 0.1250392
000030 95 d2 91 3e 54 bd a1 3e ab 65 f4 bd bb 17 d7 be
       0.28480974 0.31589758 -0.11933454 -0.42010292
000040 e1 14 bc 3e dc 92 0a be a8 6e dd be ae bb 04 be
       0.3673468 -0.13532585 -0.43248487 -0.12962219
000050 65 b5 ec be 96 24 23 bf 4d 04 18 3e f0 98 a4 3c
       -0.46232143 -0.637277 0.1484539 0.020092458
000060 44 13 bc 3e 0d 4b 8f 3e 28 73 b5 3d 68 45 4a 3e
       0.36733449 0.27986947 0.08859855 0.19753039
000070 b6 b6 c5 3d 8c e0 ea 3e b2 8a 00 3f 2e ab a4 3d
       0.0965399 0.4587444 0.5021163 0.080404624
000080 0e 5b b4 ba c6 71 b6 3d 1f d0 71 3e 19 59 89 3e
       -0.0013760047 0.08908419 0.23614548 0.2682579
000090 6d d2 f4 3e e2 49 f9 3a 95 14 9b 3d c8 dd 31 3d
       0.47816792 0.0019019211 0.07572285 0.043424398
0000a0 1e f7 a8 be 99 78 ed be 04 97 9a be 78 8d 9a 3e
       -0.33001035 -0.4638107 -0.3019334 0.30186057
0000b0 96 a3 98 3e ae 7c 59 be af d7 b8 be 6e a2 e0 3e
       0.29812306 -0.21238968 -0.36102054 0.43873924
0000c0 eb 09 cd 3e f3 e3 78 bd 98 60 77 3e 69 e6 a5 be
       0.4004663 -0.060764264 0.24157941 -0.32402351
0000d0 1e e3 19 3e b0 eb 72 be c9 cf 8c be 99 b3 9a 3e
       0.15028045 -0.2372272 -0.27502277 0.30215147
0000e0 f2 a0 94 3e 85 4a df 3e 22 cd 9d 3e 41 b1 8a 3e
       0.29029042 0.4361154 0.30820566 0.2708836
0000f0 b3 d6 a4 be 21 a3 6b 3e 8a 70 68 3e 8c 6b 81 be
       -0.32195053 0.23011447 0.2269918 -0.25277364
000100 ac b4 b6 bc 5a 48 04 3f 53 af 86 3e 81 5b f7 3e
       -0.022302948 0.516729 0.26305637 0.48312
000110 07 e7 c8 3e f5 6b 05 3f 9c 8e 5c be 4e 06 86 bc
       0.3923876 0.52117854 -0.21538776 -0.016360428
000120 69 02 83 be 46 f1 c0 be 82 2f 88 3e 76 88 e9 3d
       -0.25587776 -0.37684077 0.26598746 0.11402981
000130 72 3d ce be ca 3d a0 bc 14 fc 75 3e 52 c7 68 3e
       -0.40281254 -0.019560713 0.24021941 0.22732285
000140 7f 8f 0d 3c 11 d0 44 be ca b3 b0 3e b3 72 50 3d
       0.008640169 -0.19219996 0.34512168 0.050890636
000150 be e2 ee 3e 3b f1 27 be c1 e3 13 3e 74 43 c8 be
       0.46657366 -0.16400616 0.1444235 -0.39113963
000160 6e 00 09 bf d3 0c ed bd b8 bf 3f 3e fe 0b 7a 3e
       -0.5351628 -0.11574712 0.18725479 0.24418637
000170 1b c5 c9 3d c4 85 a5 3d 5c 4d a9 3e d8 b4 cf 3e
       0.09852048 0.080821544 0.33066833 0.4056766
000180 fc 48 22 3e 3e ec 5a 3e 08 11 a5 3e 4f 0e ed be
       0.15848154 0.21379182 0.32239556 -0.4629998
000190 35 72 1a 3e a3 3f bb bd 11 12 ac bd 98 79 fe 3d
       0.15082629 -0.09142997 -0.084018834 0.12425536
0001a0 f9 22 22 3e 46 64 e0 bc 3a a1 a9 bc c2 41 82 3e
       0.15833654 -0.027391564 -0.020706762 0.25440794
0001b0 3b 73 0d bf 92 f7 1f 3e 7b 4c 8b 3e 5d d2 38 3e
       -0.5525395 0.15621784 0.27206787 0.18048997
0001c0 d1 1c 3b 3e 7a 26 29 3e 8b a5 c7 be e6 98 b2 be
       0.18272711 0.16518584 -0.38993487 -0.34882277
0001d0 e1 6e a8 3e 7a e1 95 3e bf 38 8c 3e 66 c4 8d be
       0.32897094 0.29273587 0.27387044 -0.27688903
0001e0 77 56 8a bc 99 0c 7b be 87 67 a4 3e 1d bc 77 be
       -0.016886933 -0.24516524 0.32110235 -0.24192853
0001f0 2f db 4d be c4 0c 3b be dd af 9d 3e 74 80 90 bd
       -0.20103143 -0.18266588 0.30798236 -0.070557505
000200 83 e3 f9 b9 cd 1c b4 3d dc 85 00 bf 9e 76 b9 be
       -0.0004766249 0.08794556 -0.50204253 -0.3622331
000210 df 7e ef 3e b8 4b 15 be a5 7e c1 3d 33 05 a5 be
       0.46776482 -0.14579666 0.09447984 -0.3223053
000220 05 bd 92 3e c6 02 31 be b2 54 79 3d d3 62 79 be
       0.28659835 -0.17286214 0.060871787 -0.24354105
000230 02 28 8d 3b 80 20 92 be 52 72 09 bf 78 39 e7 bb
       0.004307748 -0.2854042 -0.53690064 -0.0070564114
000240 75 82 a8 bd 30 dc da 3d d2 f2 b1 3e 0c 28 d6 bd
       -0.08228008 0.10686529 0.3475557 -0.10456857
000250 49 dd 12 be 24 00 02 be e0 a7 08 bd ab f9 a3 3b
       -0.14342226 -0.12695366 -0.033363223 0.005004128
000260 85 c5 24 be ad ea 59 bd b3 07 e1 3e 92 db 08 be
       -0.16090973 -0.05320232 0.43951187 -0.1336501
000270 f0 fd 0c 3b 71 c7 8b 3e 39 65 c1 be 90 d7 6b be
       0.0021513663 0.273006 -0.3777254 -0.2303145
000280 2e fb 1e bf 62 93 23 3e 95 e4 43 3e 9c 13 cf be
       -0.6210202 0.15974191 0.19130166 -0.40444648
000290 f9 e2 98 bc 24 f2 d5 3d ba 5d b5 3b e2 9d e6 be
       -0.018662916 0.10446575 0.0055348547 -0.4504233
0002a0 21 6a 96 3e e2 e4 d6 3e 03 58 85 be c8 62 b8 3c
       0.29377845 0.419715 -0.2604371 0.02250804
0002b0 99 fc 87 3e e9 af ca 3d 66 38 1f bd a0 95 21 3e
       0.26559904 0.098968334 -0.038872145 0.15779734
0002c0 a5 7e d2 be f8 63 81 3e 24 51 29 3e 29 55 d4 bd
       -0.41112247 0.25271583 0.16534859 -0.103678055
0002d0 a4 7d bc 3e f1 b1 6e 3c af 58 3b bd ba a2 d6 bd
       0.36814606 0.014568792 -0.045738872 -0.104802564
0002e0 e7 cf 3e 3e d9 46 f5 3c ea ae 33 3e 4a 8d 8b be
       0.18633996 0.02994101 0.17547193 -0.27256233
0002f0 aa 07 82 bc 2b ba 30 3e fb a5 99 3e 6e bd 05 3f
       -0.015872795 0.17258517 0.30009446 0.5224217
000300 20 16 c2 3e cf b0 10 3e b7 a4 40 be 59 1a 8f 3e
       0.37907505 0.14129947 -0.18812834 0.2794979
000310 44 71 f8 be 71 d6 fb 3d 4e c7 d0 be 5f 82 48 3d
       -0.48523915 0.12296761 -0.40777057 0.048952457

sequential/dense_2/MatMul f4 [2, 10]
000000 ef 05 bf 3e 8c 09 44 be 08 62 1e 3f cf c4 42 3f
       0.37309214 -0.19144267 0.61868334 0.76081556
000010 0d 53 39 bf d5 cc 5e 3e 49 09 2b bf 6c cb af be
       -0.7239235 0.21757825 -0.66811043 -0.34334886
000020 5c 7e 30 3f 6b 82 dd 3e b0 b5 43 bf 73 6e ec be
       0.6894281 0.43263564 -0.7644911 -0.46178016
000030 91 04 c4 3e 44 a0 53 be df a5 33 3f bb 1a 20 3f
       0.38284734 -0.20666605 0.70174974 0.6254079
000040 cd 1f 3d 3f 2f 88 3c 3f 29 f7 20 be fc f7 1a 3f
       0.7387665 0.736453 -0.15719284 0.60534644
