model1/keypoint_classifier/keypoint_classifier.tflite (tflite, 6696 bytes, 6 tensors)

sequential_6/dense_20/BiasAdd/ReadVariableOp f4 [6]
000000 cf da 43 be f1 c5 69 3e b1 f9 d4 3d d8 ee b0 be
       -0.19126438 0.22829415 0.10399187 -0.34557223
000010 2a e0 02 3e 13 4c 57 3e
       0.12780824 0.21025114

sequential_6/dense_19/BiasAdd/ReadVariableOp f4 [10]
000000 b6 3f cc 3e c9 1a fe 3e ba 12 42 be ab e9 5d 3e
       0.39892358 0.4962981 -0.18952456 0.21671169
000010 da c2 da 3d 82 56 d4 3e 66 9d 93 bc 15 54 ea 3e
       0.10681696 0.4147225 -0.01801939 0.45767274
000020 1e 38 11 3f 04 04 65 3e
       0.56726253 0.22364813

sequential_6/dense_18/BiasAdd/ReadVariableOp f4 [20]
000000 c2 0e 06 bd 1c 45 41 3e cc e6 2b bd 69 91 80 bd
       -0.032728918 0.1887402 -0.041968152 -0.06277735
000010 bb 73 16 be fd 63 f4 bc dd f5 0c 3e 89 a4 3f be
       -0.14692585 -0.029832834 0.13765664 -0.18715109
000020 a7 51 03 3e ad 66 df 3e 52 27 77 3d f7 81 09 bf
       0.12824117 0.43633023 0.060340233 -0.53713936
000030 f5 ad 53 be 9f 83 b3 3e c3 d8 85 be 81 06 c0 be
       -0.20671828 0.35061356 -0.2614194 -0.37504962
000040 17 48 99 3e 36 7b 69 bd e2 55 a2 be 1e 94 35 3c
       0.29937813 -0.05700227 -0.31706148 0.011082677

sequential_6/dense_18/MatMul f4 [20, 42]
000000 fc 2c d8 bd 0c 6c a9 3d b2 fa 75 bf 16 d5 8d be
       -0.10555455 0.082725614 -0.96085656 -0.27701634
000010 82 6b 1d bf b5 01 a2 be 4b 1f 84 be f0 dd a1 3c
       -0.6149217 -0.31641927 -0.25805125 0.019759148
000020 28 bb c5 bc 9b b2 8d 3d b5 c6 99 bd 39 32 c7 3e
       -0.024137095 0.06918832 -0.075086035 0.38905504
000030 97 17 30 bc c5 f9 58 3e 35 83 fb 3c 59 3f 5c be
       -0.010747812 0.2118903 0.030702213 -0.2150854
000040 be e9 61 3c 82 92 02 be 36 34 1f 3e 39 7e 27 3f
       0.013788639 -0.12751201 0.1554726 0.65426975
000050 68 5e 9b 3c 7c e9 00 3d 2c 7e 06 bc ff ce 1b be
       0.018965915 0.031472668 -0.008208793 -0.15215681
000060 72 d1 c3 3b 22 83 e5 bd 82 ae 0c 3d e5 dd 55 3f
       0.0059758956 -0.11206652 0.03434611 0.8354171
000070 46 9d 25 ba 94 63 59 3e 47 ca 95 bc 9b a2 89 bd
       -0.0006317686 0.21229392 -0.01828493 -0.06720468
000080 5f 1b 47 3c 63 59 b2 be a2 83 71 3e 88 75 20 3f
       0.012152522 -0.34833822 0.2358537 0.6267934
000090 a3 63 95 3c 7c 98 54 3e fb a4 e4 3d 11 07 eb 3d
       0.018235987 0.20761293 0.1116428 0.11475957
0000a0 06 4c 21 3b bd 72 3c bd 88 5a e4 bd 48 90 60 3e
       0.0024611964 -0.04600786 -0.1115008 0.21930039
0000b0 aa 82 9e 3e 72 cd db 3f 40 8f 25 3e ce cc 45 3f
       0.30959064 1.7172072 0.16167927 0.7726563
0000c0 bf e2 b6 bc 58 6f a5 3e b6 5d 44 3c ce 4e a6 3d
       -0.022324918 0.3231151 0.011985233 0.081204996
0000d0 c5 91 43 be c7 31 19 bf 45 20 16 be 37 99 12 3c
       -0.19098575 -0.5984158 -0.14660747 0.008947662
0000e0 b5 d9 1d bd 80 24 cb bd bb 7e 86 bd fa 46 17 3e
       -0.0385377 -0.09919071 -0.06567141 0.14773169
0000f0 86 b0 e0 bc 7a fb 1b bf dd d9 cf 3b 30 11 07 be
       -0.027427923 -0.609306 0.00634311 -0.1319015
000100 ef cd 42 3d 22 25 f1 bc 20 1d 3c 3d f0 48 14 3e
       0.047559675 -0.029436652 0.045926213 0.14480948
000110 8d 97 4d be 73 80 f8 be 3f e7 1c 3e c1 c5 d9 bd
       -0.20077343 -0.485355 0.15322588 -0.10633422
000120 51 3f 55 bd bb 68 16 3e f1 f0 12 3c 40 23 45 3e
       -0.052062336 0.14688389 0.008968578 0.19251728
000130 f5 8e a9 3d 65 4a 01 bf 59 4a 24 bd d5 d9 11 be
       0.0827922 -0.5050414 -0.040109966 -0.14243253
000140 1d 13 57 3d ae f9 98 3e fe 1f cc bc b3 18 92 3d
       0.052508462 0.2987799 -0.024917599 0.07133617
000150 60 f7 94 3c 0c be 9d 3e 8c 23 98 3f c2 b1 0e 3f
       0.018184364 0.30809057 1.1885848 0.55739987
000160 b7 5e 54 3f a4 5e 06 3d 9e df 01 3f c4 a2 75 3e
       0.82957023 0.0328051 0.5073184 0.23987871
000170 d5 9a c0 3e 7a e7 62 bd 0f 2c ea 3c 29 aa 51 3e
       0.37618127 -0.055396535 0.028585462 0.20475067
000180 8d 92 79 3d 8e 68 2d be e1 dd 8c 3c 77 6d d3 3d
       0.060930777 -0.16934416 0.017195644 0.10323613
000190 b5 c2 6d bd 90 f0 6d 3d 18 dd 7d be 79 12 e1 3d
       -0.058047015 0.058090746 -0.24791372 0.109898515
0001a0 c3 c3 af 3d 43 d7 17 be c8 9d a3 bb 7f 8a 56 bd
       0.085822605 -0.1482821 -0.004993174 -0.052378174
0001b0 bc 6e 07 bd 22 dd 14 3d 48 cd fa bb d0 90 00 be
       -0.03306459 0.0363437 -0.007653866 -0.12555242
0001c0 e8 48 54 be 3f 62 a8 3d 08 9b 35 3d 9a 1b f5 bb
       -0.20730937 0.08221864 0.044337302 -0.007480097
0001d0 38 d8 78 bc fb b0 68 be 83 89 20 bf f9 51 db be
       -0.015188269 -0.22723763 -0.62709826 -0.42835978
0001e0 63 23 1f be ee bd e4 be d1 40 53 be 1d 26 dc bd
       -0.15540843 -0.44676155 -0.20630194 -0.10749457
0001f0 d8 34 9a be 7e 0f 1a be 46 09 1e 3e 38 79 03 3e
       -0.30118442 -0.15044972 0.15433225 0.1283921
000200 6b ac 6e bf 68 03 29 3e 6a 6a 31 bf f9 0e 59 3e
       -0.9323184 0.16505206 -0.69303 0.21197118
000210 2d b6 21 bf d7 d5 8a 3d fc 09 00 bf 6c 49 4f 3e
       -0.63168603 0.06779068 -0.50015235 0.20242852
000220 d1 ff 5b bb d9 a4 a9 3e 61 75 a2 3d a6 98 65 3d
       -0.0033569227 0.3313358 0.079325445 0.05605378
000230 ff 37 4a 3e 47 52 54 be 87 e1 92 bd 02 00 d8 3c
       0.19747923 -0.20734511 -0.07171922 0.026367191
000240 c2 84 6f be 45 b5 3e bd c1 b8 b5 bb 8e f9 5f be
       -0.23390487 -0.04655959 -0.005545706 -0.21872541
000250 ae 6a 88 bd 46 a8 43 bd 50 c6 16 3e 6a 59 ac bd
       -0.066609725 -0.0477679 0.14724088 -0.08415492
000260 78 ae b8 3d ba 47 9d 3d 1c ee 43 3e eb be 1f be
       0.09017652 0.076796964 0.191338 -0.15600173
000270 94 b2 0a 3e 5d 03 27 be c9 3d a0 3c 2f f0 09 be
       0.13544685 -0.16309877 0.019560711 -0.13470529
000280 f2 17 c8 3e e1 7c 0f 3d 71 01 16 3e ad 09 8a be
       0.3908077 0.035031203 0.14648987 -0.26960507
000290 8a 04 65 3e 9a 21 56 be 13 75 9b 3e d9 53 ac be
       0.22365013 -0.20911255 0.30362758 -0.3365772
0002a0 c8 7c f6 bd 32 63 2c be b4 74 95 3f f2 8f f9 3e
       -0.12035519 -0.16834715 1.167624 0.48742634
0002b0 8e 81 1d 3f 6c 72 91 3e 52 be fe 3e 69 43 12 3e
       0.6152581 0.2840761 0.49754578 0.14283527
0002c0 71 0a cc 3e 6f cc 2a 3e ed 60 dd 3e 56 b8 ef 3d
       0.39851716 0.16679548 0.4323801 0.11705081
0002d0 1a f6 83 3e a2 d3 44 3e c3 52 d6 3b 0c 4a c5 ba
       0.25773698 0.19221357 0.0065406277 -0.0015051975
0002e0 15 10 2f bc 71 35 8f 3c fb a6 07 3e df 39 83 3e
       -0.010684987 0.017481538 0.13247292 0.2563009
0002f0 7b f8 af bd e1 07 cd 3c a2 8e 3e 3d 94 73 ab 3c
       -0.08592316 0.025028171 0.046522744 0.020929135
000300 c6 b6 ea bd ff 2e 01 bd d4 81 89 be 9f 0e 1c 3e
       -0.114606425 -0.03153896 -0.26856863 0.15239953
000310 e8 e0 e6 3d 79 a0 58 bc 5e 58 0d be 69 c7 1d 3c
       0.11273366 -0.013221853 -0.1380324 0.009630063
000320 2b 40 10 be 07 c6 32 bc 15 8f d2 be 7c c5 cb bc
       -0.14086978 -0.010911471 -0.41124788 -0.024874441
000330 7b d4 b9 be ca c7 8f bd 7a 27 af be 71 48 67 bd
       -0.36294922 -0.070205286 -0.34209806 -0.05646557
000340 d2 e6 c7 bd 7a 01 02 be f5 74 5b be af ca 17 be
       -0.09760822 -0.12695876 -0.21431334 -0.14823411
000350 2f 5a 88 3f 19 8e ce 3e f4 d3 30 3f b6 a2 58 3e
       1.0652522 0.40342787 0.69073415 0.2115582
000360 28 2c 2b 3f 39 1b 92 3e 76 92 30 3f 37 83 80 3e
       0.6686425 0.28536394 0.6897348 0.2510011
000370 de 9c 31 3e 82 75 e2 3e d1 21 12 bd 64 9b c4 3a
       0.17344996 0.44230276 -0.03567678 0.0014999923
000380 28 e8 6f bd 5e 60 0f bd e9 45 8c bc 84 e7 51 bd
       -0.05857101 -0.035004012 -0.01712318 -0.05124618
000390 0e a4 03 3e 9f 00 d7 3e 1f d9 6d 3d e8 bf 3a 3d
       0.1285555 0.4199266 0.05806839 0.045593172
0003a0 9e 6c 8b 3c 32 86 a9 bc e7 1f 12 bd cf 94 f6 3c
       0.017019566 -0.020693872 -0.035674956 0.030100254
0003b0 3e 0f 89 bd cb 2e 1a 3e f7 5a 42 be bc 9c 66 bc
       -0.0669236 0.15056913 -0.18980013 -0.014075454
0003c0 d8 c3 eb bd ca 54 57 bd 97 5e d1 bc 96 c9 82 bd
       -0.115119636 -0.052571096 -0.0255578 -0.06386106
0003d0 e4 20 12 bf 4f 56 a4 3b 4c 74 c9 be 75 89 7f bd
       -0.5708144 0.0050151716 -0.3934654 -0.06238695
0003e0 b4 11 ef bd 51 e5 09 be b0 18 5f be 37 24 da bd
       -0.116732985 -0.13466384 -0.21786761 -0.10651439
0003f0 a0 d3 69 3e 8c 05 7d 3e 10 d8 e8 bb d1 f9 cc 3f
       0.22834635 0.24709147 -0.007105835 1.6013738

sequential_6/dense_19/MatMul f4 [10, 20]
000000 56 66 fb bd e3 9c a1 be 07 28 01 3f 0d 83 35 bd
       -0.122753784 -0.31565008 0.504517 -0.044314433
000010 07 c4 08 3f 9a 0c 0d 3f 6f 1d 9e be e4 5f a7 3e
       0.53424114 0.55097353 -0.3088183 0.32690346
000020 58 01 ae bd 1a 69 c4 3e 17 8f f9 3e bd 58 61 3e
       -0.0849635 0.38361436 0.4874198 0.22006507
000030 17 2f 42 be 54 e9 87 3e 2a 33 b7 3e 38 2a e4 3e
       -0.18963276 0.26545203 0.35781223 0.4456346
000040 c9 91 54 bd 8c 0d cd bc b8 38 5c 3f a8 58 5d 3f
       -0.051896844 -0.025030874 0.86024046 0.86463404
000050 17 3d 91 3e 56 b6 eb 3e 0e a6 a2 be e3 a1 75 3e
       0.2836692 0.4603755 -0.31767315 0.23987536
000060 81 10 b3 bd 5d 73 cc 3d af ef c3 3e 4b c2 a6 bd
       -0.08743382 0.09982941 0.38268802 -0.08142527
000070 fb 3d c7 3d a1 40 15 3f 49 d5 90 bd 7e ac c8 be
       0.09728619 0.5830174 -0.07071931 -0.391941
000080 6f 02 83 3e 1a 7c c2 3e 37 16 e0 be ca c5 b7 be
       0.25587794 0.37985307 -0.4376695 -0.3589309
000090 33 aa ee 3e c6 d4 da 3e d8 c1 e0 3d 5a 8c ea bd
       0.46614227 0.42740458 0.10974473 -0.11452551
0000a0 c2 9e 8a be 82 01 ec 3e 79 73 63 3e ad f7 8d 3d
       -0.27074248 0.460949 0.22212018 0.06932006
0000b0 32 93 05 3e a6 d2 32 3e a9 5c 05 3f 40 fe 32 3e
       0.13044432 0.17463169 0.52094513 0.17479801
0000c0 9d 74 ba 3e 30 3e 13 3f 82 20 76 bf 8c 2a 2a 3e
       0.36417094 0.57516766 -0.96143353 0.16617793
0000d0 17 47 3f bd ed ef 6f 3e df 8f 7f 3c a2 a5 3f bf
       -0.046698656 0.23431368 0.015598266 -0.7486211
0000e0 b0 18 04 3f dd d0 42 3c 26 f3 11 bd 87 c2 07 3f
       0.5160017 0.011890617 -0.035632275 0.530312
0000f0 26 3d 96 bc 51 35 cf 3e b8 be 9e 3e 95 dc 13 3e
       -0.018339705 0.40470365 0.31004882 0.14439614
000100 a0 db 86 bc 32 6a b5 be 59 42 e9 3e 19 a1 89 bf
       -0.016462147 -0.35432583 0.45558432 -1.0752288
000110 c2 57 40 bd 6f 1f 4c 3e f9 01 45 bf af e8 a0 3d
       -0.046958692 0.19933866 -0.76956135 0.07856881
000120 55 82 d3 3e 21 ce 0b 3e a5 42 d0 3e bf de 51 3e
       0.41310373 0.1365285 0.40675846 0.20495127
000130 58 ee 12 be ba eb fc 3d ed 41 cc 3e 7a 4b af 3e
       -0.14348733 0.12349649 0.39894047 0.34237272
000140 ab 60 4a 3f 6a 5c 09 bf 6f 60 e7 3d 71 f2 79 3e
       0.79053754 -0.5365664 0.1129769 0.2440889
000150 74 97 05 be 8a ab f2 bd f2 3c dd be 02 31 87 3e
       -0.13046056 -0.11849125 -0.4321056 0.26404577
000160 3a f9 b7 3e a5 cc a9 3e bc fa a7 3e 63 b4 26 be
       0.35932332 0.33163944 0.32808483 -0.1627975
000170 a3 6b 09 3f 50 db 14 be 31 27 2b bd 86 2b a5 3e
       0.53679866 -0.14536786 -0.041785423 0.32259768
000180 38 83 35 be 60 62 04 3f 2c e5 3f 3e 56 d8 2a be
       -0.17725837 0.5171261 0.18739766 -0.16684088
000190 0d 69 8c 3b 0b 55 80 be c5 3f 63 bf 9f 49 01 3f
       0.004284984 -0.25064883 -0.8876918 0.5050296
0001a0 1b b8 2f be 77 eb 15 bf e3 2d ab be 45 9f 03 bd
       -0.17160074 -0.58562416 -0.33433446 -0.032134313
0001b0 54 61 f3 ba 04 ca 36 3e 97 e4 8c bd c4 af ab be
       -0.0018568435 0.178505 -0.068795376 -0.33532536
0001c0 a9 b2 05 3f ae 84 63 3e 51 30 4e bf de 26 7c be
       0.5222574 0.22218582 -0.80542475 -0.24624202
0001d0 50 6d a8 3e 05 f0 b2 3e aa b6 e5 3e 30 96 1b bf
       0.328959 0.34948745 0.44865924 -0.6077604
0001e0 cf e1 b7 3e 2c b5 be be 23 79 8f 3e 70 22 25 bf
       0.35914466 -0.37247598 0.28022107 -0.6450567
0001f0 45 47 f1 3e 90 af b2 3e 3f d0 1b bf 52 92 0a 3f
       0.47124687 0.3489957 -0.60864633 0.5412952
000200 ba b3 d5 3e d0 3f 44 3e de 4f 4f 3e 04 d3 88 be
       0.41738683 0.19164968 0.2024531 -0.26723492
000210 fe 87 af be 1c 41 02 3f 04 75 b2 3e a5 ec 90 3e
       -0.3428344 0.508806 0.348549 0.28305545
000220 14 19 45 bf cb a4 1f bd f7 06 0f bd 53 2b 40 3f
       -0.7699139 -0.03897552 -0.03491875 0.7506611
000230 88 45 92 3e 76 9e 22 be 9b a6 b5 bd e9 4f bc 3e
       0.28568673 -0.1588076 -0.08869668 0.36779717
000240 c3 49 5b bf d8 41 2c bf 7a 7e a4 be ec de ce 3e
       -0.85659426 -0.6728797 -0.32127744 0.4040445
000250 f9 82 79 be bf 64 1a bf 94 52 99 3e ae e7 1f bd
       -0.24366368 -0.60309976 0.29945815 -0.039039306
000260 f5 d2 d1 3e fb 01 e8 be e9 ab 93 3e d5 a9 a7 3e
       0.4098126 -0.4531401 0.28842095 0.3274676
000270 ae 91 6c 3d 42 88 9b bd e7 f4 9f be d7 5b 5d bf
       0.05775612 -0.075943485 -0.31241533 -0.8646826
000280 0f 33 87 be b1 e2 8b 3d f3 b5 c5 3e 5d 7a 64 3e
       -0.26406142 0.06830347 0.3861538 0.22312303
000290 15 e8 82 be 06 91 5e be c2 c2 3f be 74 36 dc 3e
       -0.2556769 -0.2173501 -0.18726638 0.43010294
0002a0 96 65 36 bf 79 dc 48 bf 3b ba df 3e 47 66 e3 3e
       -0.7124876 -0.78461415 0.4369677 0.4441397
0002b0 71 ba 36 bd e0 87 47 bf f6 01 e2 3e e5 6f 39 3f
       -0.044611398 -0.77941704 0.4414212 0.7243636
0002c0 03 a8 48 bf e4 07 01 3f 2f 24 4f bf df 58 9b be
       -0.78381366 0.50402665 -0.80914587 -0.3034124
0002d0 99 d9 61 bf 59 74 39 3f 98 08 ca 3e 77 9b ae be
       -0.8822265 0.7244316 0.39459682 -0.34102985
0002e0 6c 22 0e 3f f2 e2 c8 3e a9 79 29 3f 99 13 12 be
       0.55521274 0.39235646 0.66201264 -0.14265288
0002f0 2c ff 17 be 78 d7 9d be f2 f3 82 bc dd 16 28 3f
       -0.14843434 -0.30828452 -0.015985463 0.65659887
000300 9e 9a 2a be ff 39 5f 3e 8a 54 87 3e 71 d3 24 3d
       -0.16660544 0.21799468 0.26431686 0.04024071
000310 14 5a 87 3e 43 45 68 be 24 cd 55 3e e2 52 06 3f
       0.26435912 -0.22682671 0.20879036 0.5247022

sequential_6/dense_20/MatMul f4 [6, 10]
000000 2f 82 b0 bf 59 46 3a 3f b0 3a 11 3c 71 26 c1 3e
       -1.3789729 0.7276359 0.00886409 0.3772464
000010 e1 d2 7d be ad fc 9a 3e 1e 1f 58 bc d0 e2 cc be
       -0.24787475 0.302709 -0.013191013 -0.40016794
000020 c5 65 a4 be 75 7d b5 be 52 be ef be 6e 96 15 bf
       -0.32108894 -0.3544728 -0.4682489 -0.5843266
000030 95 33 3b be 1a fd e2 3e c0 e5 55 3f 79 e2 3f bf
       -0.18281396 0.44333726 0.83553696 -0.74954945
000040 f9 fc 37 bc 60 49 74 3e 36 23 89 3e c6 47 57 bf
       -0.011229747 0.23856115 0.26784676 -0.8409389
000050 10 b9 f9 3e 78 ec 13 bf 48 02 91 bf bf 39 a5 bd
       0.48774004 -0.577827 -1.1328821 -0.08067655
000060 a2 c0 c1 3c e3 27 f5 bd d1 ba 41 3f fb e7 47 bf
       0.023651425 -0.119704984 0.75675684 -0.7808835
000070 dd c0 80 be 38 f9 ad 3d f3 6b 39 3e 51 fd fb bb
       -0.25147143 0.084948 0.18107586 -0.00769011
000080 a9 0d bb be 07 0a 53 3e b5 c3 4c bf 02 ae 5e bc
       -0.3653386 0.20609294 -0.79986125 -0.013591291
000090 af 7d 83 3b 16 61 46 bf 44 82 fa be b7 26 57 3f
       0.0040127854 -0.7749189 -0.4892751 0.8404345
0000a0 c8 1b 9c bd 7c 81 a4 be 8b 16 29 3f 28 1c 6d 3e
       -0.07622486 -0.3213004 0.6605002 0.23155272
0000b0 08 cc a0 be c5 3c 39 bf 0e 2e 48 be 5e 52 65 3e
       -0.31405663 -0.7235835 -0.19548818 0.22394702
0000c0 fd 10 51 3f d7 e9 14 bf 43 84 be 3e 69 b6 0b 3f
       0.8166655 -0.5816931 0.37210283 0.5457521
0000d0 e1 a6 2e bf fd fc 91 bf 20 ce 31 3f b7 b6 d3 3e
       -0.68223387 -1.1405331 0.69455147 0.41350338
0000e0 17 e7 d6 be 12 36 77 be be c6 63 bf f4 07 25 bf
       -0.41973183 -0.2414172 -0.8897513 -0.6446526
